…
_qat=False, enable_qat_fx=False, epoch=5, eval_batch_size=16, eval_steps=500, gradient_accumulation_steps=1, hp_search_optuna=False, hp_trials=24, label_filename='label.txt', local_rank=0, log_dir='runs', lr=5e-05, max_grad_norm=0.0, max_grad_value=0.0, max_train_steps=None, measure='loss', num_warmup_steps=None, patience=7, restore_path='', save_after_eval=False, save_path='pytorch-model.pt', seed=42, use_fp16=False, use_isomax=False, warmup_epoch=0, warmup_ratio=0.0, weight_decay=0.01)}
[model] :
TextBertCLS(
  (bert_model): BertModel(
    (embeddings): BertEmbeddings(
      (word_embeddings): Embedding(21128, 256, padding_idx=0)
      (position_embeddings): Embedding(512, 256)
      (token_type_embeddings): Embedding(2, 256)
      (LayerNorm): LayerNorm((256,), eps=1e-12, elementwise_affine=True)
      (dropout): Dropout(p=0.1, inplace=False)
    )
    (encoder): BertEncoder(
      (layer): ModuleList(
        (0-11): 12 x BertLayer(
          (attention): BertAttention(
            (self): BertSelfAttention(
              (query): Linear(in_features=256, out_features=256, bias=True)
              (key): Linear(in_features=256, out_features=256, bias=True)
              (value): Linear(in_features=256, out_features=256, bias=True)
              (dropout): Dropout(p=0.1, inplace=False)
            )
            (output): BertSelfOutput(
              (dense): Linear(in_features=256, out_features=256, bias=True)
              (LayerNorm): LayerNorm((256,), eps=1e-12, elementwise_affine=True)
              (dropout): Dropout(p=0.1, inplace=False)
            )
          )
          (intermediate): BertIntermediate(
            (dense): Linear(in_features=256, out_features=1024, bias=True)
            (intermediate_act_fn): GELUActivation()
          )
          (output): BertOutput(
            (dense): Linear(in_features=1024, out_features=256, bias=True)
            (LayerNorm): LayerNorm((256,), eps=1e-12, elementwise_affine=True)
            (dropout): Dropout(p=0.1, inplace=False)
          )
        )
      )
    )
    (pooler): BertPooler(
      (dense): Linear(in_features=256, out_features=256, bias=True)
      (activation): Tanh()
    )
  )
  (dropout): Dropout(p=0.2, inplace=False)
  (fc): Linear(in_features=256, out_features=95, bias=True)
)
[model prepared]
(num_update_steps_per_epoch, max_train_steps, num_warmup_steps): (652, 3260, 0)
***** Running training *****
  Num examples(batches) per epoch = 652
  Num Epochs = 5
  Instantaneous batch size per device = 8
  Total train batch size (w. parallel, distributed & accumulation) = 8
  Gradient Accumulation steps = 1
  Total optimization steps = 3260
…
